model.pth (torch, 52212 bytes, 5 tensors)

lstm.weight_ih_l0 f4 [200, 10]
0.09050517 -0.07015011 -0.069258355 -0.05185885 0.086360194 0.089887425 0.1159916 -0.029889869
0.13912109 -0.12045905 -0.055828065 -0.055076666 0.042588945 0.11157317 -0.11472473 0.15061441
0.04780012 0.13013424 -0.029330919 -0.08542892 -0.02398008 0.048461415 -0.068347484 0.0013209874
-0.039512888 0.12564194 0.047209222 0.032785885 0.12920927 -0.041669354 -0.02494249 0.10300875
0.10358657 0.054920994 0.035955586 0.05246341 -0.13633323 0.12020165 -0.12565261 0.058021944
-0.038618024 -0.105883636 0.11340443 0.07498206 0.028342212 0.09471823 0.11033613 0.112064056
0.15459663 0.033760674 0.028324295 -0.011176163 0.0934167 0.00881623 -0.068325326 -0.09805934
0.102702826 0.09876444 0.1454212 -0.010038773 0.15816183 0.086454466 -0.07279143 -0.09579485
0.10675142 0.01832243 0.15586731 -0.040298834 0.0644596 0.12948869 -0.08585445 -0.0038842238
-0.05332289 0.0071272445 -0.098345034 -0.061115954 0.073042795 0.034683634 -0.088043116 -0.10257292
0.13617559 -0.12996913 0.004479917 -0.07634985 0.11885967 -0.03277803 0.038659178 0.05797998
0.03360631 0.08689704 -0.039343864 -0.020063573 -0.06863354 0.047292788 -0.12319079 -0.11379282
0.12885228 0.02668335 -0.07646372 0.13791902 0.009252842 -0.08292376 -0.0584732 -0.123097986
-0.058257096 -0.0084740985 -0.0932852 0.12742022 -0.10399426 0.12307265 0.088762105 -0.076473445
-0.07754209 0.109793566 0.04135282 0.121507265 0.08209703 0.11797367 -0.062190782 0.098105274
-0.029513361 0.00944836 -0.10295379 0.066560775 -0.037050158 0.070685685 0.1475377 0.045838885
-0.022512564 0.01372003 -0.07938153 -0.038224246 0.03437912 -0.07347373 -0.071246475 -0.10164176
-0.092855126 -0.078521885 -0.038282607 0.1354857 -0.103346296 -0.063390195 0.08958381 -0.0006259864
0.11729535 -0.15643336 0.022062762 0.12211237 -0.018274453 -0.022849705 0.002631115 0.11817289
-0.008418796 0.10220126 -0.1016133 -0.07186764 -0.05780376 0.12699942 -0.03193978 0.14517562
-0.08422064 0.1141047 0.010059259 -0.09832197 0.03498629 -0.057918824 -0.0691026 0.05310135
0.09171511 0.10246354 -0.049323805 -0.13209775 0.0028669015 0.077933125 -0.13278405 -0.13814512
-0.05836492 -0.10703103 0.10442566 0.03495815 0.08230807 -0.07327298 -0.11662854 -0.08541132
-0.00634901 0.09649972 -0.045936484 0.052968983 0.040952064 -0.14199239 0.00063404505 -0.06344075
-0.035133403 -0.1131124 -0.026631722 -0.037954908 0.11013336 -0.08174021 0.13836132 -0.092648715
-0.073065825 0.05653738 -0.11635 -0.046345454 0.046707842 0.008668613 -0.046893466 -0.07231681
-0.026242198 -0.13449487 0.119935766 0.03362323 0.102302216 0.009519718 -0.11850002 -0.008587343
-0.105653524 0.03532741 -0.032368783 -0.047596972 0.109904766 -0.031626612 0.08403925 -0.091904104
0.069061615 0.009301173 -0.081154026 -0.1003042 0.011762741 -0.055819515 0.14772417 -0.11093822
0.06624813 -0.08247651 0.10560016 0.053019054 0.0030531522 -0.029850272 0.07338491 0.0053236797
0.09479334 0.14647457 -0.009142678 0.041812867 0.062075086 -0.003244863 -0.09646114 0.027797777
0.14483418 -0.010882128 0.08630493 0.019513078 -0.029818013 0.04967052 0.09067589 -0.029709736
00000000: c65a b93d dcaa 8fbd 53d7 8dbd f269 54bd
00000010: 9ddd b03d e616 b83d 018d ed3d 99db f4bc
00000020: c275 0e3e 3cb3 f6bd f8ab 64bd 1298 61bd
00000030: bf71 2e3d 7980 e43d cdf4 eabd aa3a 1a3e
00000040: 0fca 433d e941 053e 6547 f0bc 5cf5 aebd
00000050: df71 c4bc 7a7f 463d c4f9 8bbd fb24 ad3a
00000060: 44d8 21bd 48a8 003e 755e 413d 7e4a 063d
00000070: 6f4f 043e 7cad 2abd 3154 ccbc 40f6 d23d
00000080: 3225 d43d d6f4 603d 2a46 133d dfe3 563d
00000090: f09a 0bbe 482c f63d 14ab 00be 6ba8 6d3d
000000a0: ef2d 1ebd 85d9 d8bd 9540 e83d 3290 993d
000000b0: ed2d e83c a2fb c13d e9f7 e13d d781 e53d
000000c0: 944e 1e3e a248 0a3d 5a08 e83c 3a1c 37bc
000000d0: 4151 bf3d f371 103c 26ee 8bbd 56d3 c8bd
000000e0: dc55 d23d 0345 ca3d 4ce9 143e aa79 24bc
000000f0: 2df5 213e 0a0f b13d ac13 95bd 1730 c4bd
00000100: 7da0 da3d ec18 963c ae9b 1f3e 6410 25bd
00000110: 6503 843d af98 043e 75d4 afbd 768e 7ebb
00000120: 1a69 5abd a98b e93b 1f69 c9bd b954 7abd
00000130: 7697 953d 6d10 0e3d f34f b4bd c011 d2bd
00000140: 9d71 0b3e a116 05be 45cc 923b 4f5d 9cbd
00000150: b36c f33d 4142 06bd 1659 1e3d 6a7c 6d3d
00000160: c5a6 093d 13f7 b13d 0827 21bd 5d5c a4bc
00000170: be8f 8cbd 15b6 413d 744b fcbd 360c e9bd
00000180: daf1 033e 0a97 da3c 0399 9cbd a53a 0d3e
00000190: 3b99 173c efd3 a9bd 9881 6fbd cc1a fcbd
000001a0: fe9e 6ebd f2d6 0abc 500c bfbd 727a 023e
000001b0: f1fa d4bd 830d fc3d e8c8 b53d 1c9e 9cbd
000001c0: 63ce 9ebd 73db e03d 9361 293d cdd8 f83d
000001d0: 7d22 a83d 2e9c f13d c3bb 7ebd 6beb c83d
000001e0: 01c6 f1bc 4bcd 1a3c 70d9 d2bd 0451 883d
000001f0: e8c1 17bd a8c3 903d 1f14 173e 8ec1 3b3d
00000200: 456c b8bc fac9 603c c992 a2bd 0791 1cbd
00000210: 1fd1 0c3d 6579 96bd ace9 91bd 8e29 d0bd
00000220: d42a bebd 15d0 a0bd 39ce 1cbd c3bc 0a3e
00000230: 39a7 d3bd b8d2 81bd b777 b73d 3c19 24ba
00000240: 8b38 f03d 1130 20be f7bc b43c 0d16 fa3d
00000250: 4eb4 95bc 4e2f bbbc c96e 2c3b a104 f23d
00000260: fdee 09bc e54e d13d a21a d0bd 572f 93bd
00000270: a3c3 6cbd 230c 023e 49d3 02bd eba8 143e
00000280: df7b acbd baaf e93d 97cf 243c 075d c9bd
00000290: c94d 0f3d 4a3c 6dbd aa85 8dbd cd80 593d
000002a0: 22d5 bb3d 68d8 d13d c207 4abd a244 07be
000002b0: a0e2 3b3b 679b 9f3d 8bf8 07be ea75 0dbe
000002c0: 0e10 6fbd 1633 dbbd 1fdd d53d 4730 0f3d
000002d0: 2291 a83d 2510 96bd f2da eebd 21ec aebd
000002e0: 5b0b d0bb a5a1 c53d e527 3cbd 01f6 583d
000002f0: 5abd 273d 7466 11be 0b36 263a 39ed 81bd
00000300: 0be8 0fbd 79a7 e7bd c52a dabc 9b76 1bbd
00000310: 998d e13d 6967 a7bd 97ae 0d3e 9cbe bdbd
00000320: 89a3 95bd bd93 673d e948 eebd bbd4 3dbd
00000330: b950 3f3d cc06 0e3c 5d13 40bd d61a 94bd
00000340: e1f9 d6bc 06b9 09be e2a0 f53d 83b8 093d
00000350: d383 d13d 97f8 1b3c 23b0 f2bd edb1 0cbc
00000360: e060 d8bd 79b3 103d 2195 04bd 0bf5 42bd
00000370: c015 e13d e88a 01bd c51c ac3d 3838 bcbd
00000380: 2d70 8d3d f263 183c 1534 a6bd 4a6c cdbd
00000390: 83b8 403c 01a3 64bd 0145 173e 9433 e3bd
000003a0: 19ad 873d 72e9 a8bd e644 d83d 822a 593d
000003b0: 6517 483b 8f88 f4bc d44a 963d 4372 ae3b
000003c0: 0323 c23d 6efd 153e 2ccb 15bc f843 2b3d
000003d0: 7242 7e3d c4a7 54bb 6b8d c5bd 2ab8 e33c
000003e0: 694f 143e f44a 32bc a4c0 b03d e4d9 9f3c
000003f0: e844 f4bc 5173 4b3d 48b4 b93d d561 f3bc

lstm.weight_hh_l0 f4 [200, 50]
0.08538657 -0.10584803 -0.096939534 -0.05409625 0.081582196 -0.12714405 -0.02745815 0.13878098
-0.024632905 0.020492306 -0.051594898 0.120010205 0.12085734 0.019011794 -0.03200465 -0.10797953
-0.053451892 0.007327735 -0.07484833 -0.089527525 -0.0021001815 0.09801405 -0.029722009 0.12778667
0.050551932 -0.071907386 -0.07123379 -0.020459535 0.065982245 -0.07996995 0.08515839 -0.032143004
-0.09119779 0.1262418 0.044971358 -0.032240473 -0.08799806 0.04858766 0.12515661 0.080791235
-0.021884173 0.0020089804 0.026812652 0.00094001583 -0.051851235 0.11433789 0.02912928 -0.023157645
0.06236096 -0.15195689 0.09551637 -0.06886648 -0.07782258 0.0705091 0.0654077 -0.13054235
-0.0077920663 -0.0005538071 -0.10888886 -0.037517507 -0.105551235 0.08396675 0.02241838 -0.03372515
-0.014393316 0.009336198 -0.06235031 -0.027502885 -0.092384204 -0.09870723 -0.14772269 0.14084308
-0.03681396 0.07945834 -0.031429224 -0.026279876 0.03708404 -0.14864442 0.118195504 -0.086847894
0.103658825 0.062989615 0.107003 0.11628178 0.044220097 0.021477848 -0.0040943436 0.10450604
0.08418442 -0.1442069 -0.118624546 -0.12811278 -0.12070074 -0.14511335 0.08237677 -0.028309638
-0.017542938 0.13013983 0.043374684 0.007855852 0.114445515 -0.1116049 -0.04883554 -0.07036457
-0.055026103 0.06924398 -0.021370718 0.0834345 0.118013404 0.098638214 -0.13158496 0.025874421
0.06500535 0.13670348 0.066318445 0.066114776 -0.015626842 0.05242584 -0.01564801 -0.119579725
-0.16298023 -0.11362694 -0.010909794 0.033405516 0.10555772 -0.07108637 0.086392105 0.0833985
0.08698033 -0.096779704 0.116228625 0.09674949 0.047858182 0.109683804 -0.04610377 0.12322726
0.10851049 -0.116292275 -0.1180663 0.05600412 -0.0885744 0.04788842 0.024599561 -0.04897658
-0.034359474 -0.1392923 -0.07411457 -0.11445652 0.043071475 0.106690876 0.11810339 -0.12423908
0.14282563 0.09376142 0.14703737 -0.10629708 0.061601587 -0.1263104 0.03689569 0.06640624
-0.07360592 -0.12328063 0.10702031 0.13085507 -0.1563264 0.0047052144 -0.041124925 -0.13526711
0.03726419 -0.14626636 0.000926961 -0.055307355 0.14744295 -0.0572866 0.03667535 0.07955815
-0.02791316 0.09099908 -0.062880814 -0.12394604 -0.14841892 -0.095558286 0.060200274 0.08096182
-0.020779824 -0.038087137 0.15034015 0.057891797 -0.032845344 0.066414505 0.017015798 -0.09019796
-0.03835621 -0.10073295 -0.050521873 -0.0155547345 -0.001331908 0.03971469 0.05492254 -0.079209365
-0.066575386 -0.103563815 -0.11602331 0.06814886 0.05662114 -0.01158537 0.101649776 -0.0013341184
0.08855611 0.09451404 -0.042523045 0.10956413 -0.041591186 -0.112313025 0.006472831 -0.065093525
-0.007311502 -0.06480433 -0.0009324019 -0.08298862 -0.15760417 0.09393271 -0.10965567 -0.013855662
-0.06892918 0.11547747 -0.025410136 0.09691311 0.13277218 -0.01203556 -0.09237563 -0.1291596
-0.1251393 -0.13900036 0.008924625 -0.092439234 0.011699991 -0.028595213 0.04955097 -0.028881034
-0.021987079 -0.08942404 -0.043113798 -0.09792767 -0.05884295 0.018729538 -0.033886943 0.1503466
-0.13072059 0.0582016 0.09293538 0.1275509 -0.051661678 -0.09321464 0.13023204 -0.111453116
00000000: 27df ae3d dac6 d8bd 3c88 c6bd 0894 5dbd
00000010: 9114 a73d 0d32 02be eaef e0bc 9a1c 0e3e
00000020: f2ca c9bc 7bdf a73c 2c55 53bd e9c7 f53d
00000030: 0e84 f73d 9fbe 9b3c 4f17 03bd 5f24 ddbd
00000040: 5ff0 5abd 7f1d f03b 154a 99bd 355a b7bd
00000050: 33a3 09bb 97bb c83d 927b f3bc 82da 023e
00000060: 8b0f 4f3d 2e44 93bd 05e3 91bd c19a a7bc
00000070: b321 873d 49c7 a3bd 8667 ae3d 62a8 03bd
00000080: e8c5 babd 8845 013e e333 383d 960e 04bd
00000090: 5438 b4bd db03 473d 0e29 003e e075 a53d
000000a0: 7046 b3bc 19a9 033b 35a6 db3c 656b 763a
000000b0: f661 54bd fc29 ea3d 87a0 ee3c 1ab5 bdbc
000000c0: 356e 7f3d 969a 1bbe 169e c33d de09 8dbd
000000d0: 7261 9fbd 1367 903d 79f4 853d e5ac 05be
000000e0: 9754 ffbb 5e2d 11ba 1f01 dfbd f5ab 19bd
000000f0: 3f2b d8bd c2f6 ab3d c0a6 b73c 6223 0abd
00000100: f1d1 6bbc daf6 183c 0a63 7fbd bb4d e1bc
00000110: ee33 bdbd 0427 cabd 9e44 17be 2b39 103e
00000120: 3cca 16bd 0ebb a23d eebb 00bd e548 d7bc
00000130: 6fe5 173d 3e36 18be 7c10 f23d 4fdd b1bd
00000140: 144b d43d b300 813d 6424 db3d 2425 ee3d
00000150: 2220 353d 50f2 af3c d829 86bb 4307 d63d
00000160: e268 ac3d f9aa 13be 6df1 f2bd ff2f 03be
00000170: f331 f7bd 9898 14be 27b5 a83d 9de9 e7bc
00000180: 35b6 8fbc 6043 053e a7a9 313d d5b5 003c
00000190: 6962 ea3d 1c91 e4bd c607 48bd 4d1b 90bd
000001a0: 0d63 61bd cacf 8d3d a511 afbc b5df aa3d
000001b0: 03b1 f13d d502 ca3d 35be 06be 98f6 d33c
000001c0: 8621 853d fffb 0b3e f7d1 873d 2f67 873d
000001d0: dd03 80bc 7abc 563d 4130 80bc 37e6 f4bd
000001e0: 4ae4 26be 3eb5 e8bd febe 32bc 39d4 083d
000001f0: a52e d83d bb95 91bd 58ee b03d d5cc aa3d
00000200: be22 b23d 7034 c6bd 4609 ee3d 9924 c63d
00000210: f106 443d e7a1 e03d 4fd7 3cbd 935e fc3d
00000220: bf3a de3d a52a eebd bfcc f1bd 9364 653d
00000230: 7f66 b5bd a626 443d 0585 c93c ab9b 48bd
00000240: 85bc 0cbd a4a2 0ebe 61c9 97bd 2e68 eabd
00000250: b76b 303d bf80 da3d 31e0 f13d 0f71 febd
00000260: e240 123e fd05 c03d f790 163e 49b2 d9bd
00000270: f251 7c3d 8357 01be ef1f 173d ffff 873d
00000280: b3be 96bd 8e7a fcbd 772d db3d dffe 053e
00000290: 0714 20be 332e 9a3b 9c72 28bd 7683 0abe
000002a0: 56a2 183d d9c6 15be 4dff 723a f789 62bd
000002b0: 49fb 163e 5ba5 6abd e438 163d 62ef a23d
000002c0: 24aa e4bc ba5d ba3d a8c7 80bd 6cd7 fdbd
000002d0: 21fb 17be 10b4 c3bd 9094 763d 50cf a53d
000002e0: 733a aabc 4201 1cbd c5f2 193e f31f 6d3d
000002f0: d788 06bd 5404 883d b764 8b3c b5b9 b8bd
00000300: 671b 1dbd 144d cebd 06f0 4ebd 49d9 7ebc
00000310: 6b93 aeba dfab 223d 75f6 603d 8538 a2bd
00000320: ad58 88bd 4419 d4bd a19d edbd a191 8b3d
00000330: 92eb 673d 90d0 3dbc c22d d03d 96dd aeba
00000340: e85c b53d 9490 c13d a52c 2ebd 2963 e03d
00000350: 855b 2abd 5f04 e6bd 0b1a d43b c14f 85bd
00000360: 5395 efbb 22b8 84bd 6f6c 74ba f0f5 a9bd
00000370: fd62 21be cb5f c03d 2793 e0bd dc02 63bc
00000380: be2a 8dbd 747f ec3d eb28 d0bc 617a c63d
00000390: 6ef5 073e cc30 45bc 6f2f bdbd 6a42 04be
000003a0: 8424 00be 1c56 0ebe 9738 123c c850 bdbd
000003b0: 52b1 3f3c 8240 eabc f5f5 4a3d eb97 ecbc
000003c0: 3f1e b4bc f323 b7bd 1898 30bd 4d8e c8bd
000003d0: 4e05 71bd b06e 993c 09cd 0abd 76f4 193e
000003e0: 9edb 05be cd64 6e3d e854 be3d b49c 023e
000003f0: 329b 53bd 51e7 bebd 8c5b 053e 8841 e4bd

lstm.bias_ih_l0 f4 [200]
-0.04179872 -0.03885465 0.1314703 0.027119169 0.05932514 0.0033702431 -0.062257666 0.047188442
-0.01949571 0.13181958 -0.05247174 0.039034303 0.13776733 -0.11171548 0.10877454 -0.118736066
-0.13074647 0.05120062 -0.10563607 -0.018349793 0.026555426 -0.06483019 0.044725113 0.1252742
-0.048916638 -0.030104127 0.11673537 0.038030967 -0.031696886 -0.09187729 -0.09566501 -0.120908745
-0.122237474 0.058507983 0.01931556 0.0318102 -0.14628908 -0.1369768 -0.11670324 -0.026706703
-0.121951185 -0.13913277 -0.14702183 0.11588476 0.10966408 -0.09038718 -0.10329816 0.002867098
-0.12887682 -0.1343859 -0.011295121 -0.043585155 0.097326316 -0.038345173 -0.032983467 -0.037853252
-0.12212258 0.009714013 0.14992622 -0.13500862 -0.08329869 -0.10358397 0.042632446 0.040489286
0.016662253 -0.091713846 -0.15354222 0.09213779 0.058988526 -0.030617964 -0.059588075 -0.01730168
0.031901006 -0.047771897 0.078310646 -0.0072486945 -0.05258488 -0.062243447 0.09149847 -0.057965465
-0.035307888 -0.022996575 -0.061559245 -0.044104557 0.12084958 -0.10172421 0.06554331 -0.0057429634
0.14742373 0.11656334 0.08780846 -0.023428317 0.017446062 0.05453095 0.082814485 0.037413128
0.011745346 -0.062448535 -0.074845456 -0.1409386 0.11444549 0.09639307 0.119417734 0.15550205
0.008325141 0.11281045 -0.010365873 0.122798026 0.11686014 0.047337454 -0.06995834 -0.045966055
0.07119411 0.0791879 0.015813278 0.0684853 0.06183658 -0.09955443 0.11809247 0.102850325
-0.05598285 0.076217525 -0.13778554 0.006802283 0.10485035 -0.080094695 0.08690102 0.0017913942
-0.0064533907 -0.052195027 0.06364457 -0.11578342 -0.046466276 0.13549154 -0.031807516 -0.15406491
0.08214914 -0.09817501 -0.042301893 -0.08972774 0.10039983 0.10472453 0.070641495 -0.094290085
0.005690891 -0.013922022 -0.0048209103 -0.11782034 -0.061306525 0.08648452 0.011021784 -0.023167426
0.113585666 0.07029666 0.12371628 0.029179474 0.06906525 0.036946736 0.12643464 -0.119942024
-0.0058118743 0.016692236 0.04653357 0.15449178 -0.00075789023 -0.115940824 0.031233655 0.117122665
0.07539915 0.11285924 -0.06095246 -0.060319364 -0.10205202 -0.08531579 0.11951008 0.08998082
-0.0028745558 -0.00044610072 0.051937874 -0.010369814 0.15474181 -0.0043668537 -0.04156457 -0.14032783
-0.009135166 0.03195698 0.059234194 -0.11062217 0.1164595 0.10356097 0.0062672207 -0.065958075
-0.15792811 0.068470016 0.043595478 -0.036416378 -0.023174925 0.03378011 -0.04382168 0.046416204
00000000: 2235 2bbd 0e26 1fbd 26a0 063e 0529 de3c
00000010: ebfe 723d 4cdf 5c3b e501 7fbd ab48 413d
00000020: 78b5 9fbc b6fb 063e 9bec 56bd 6fe2 1f3d
00000030: e112 0d3e 16cb e4bd 30c5 de3d e52b f3bd
00000040: 67e2 05be beb7 513d b957 d8bd 4e52 96bc
00000050: c48a d93c b1c5 84bd ae31 373d e147 003e
00000060: d05c 48bd ee9c f6bc f412 ef3d 5cc6 1b3d
00000070: 98d4 01bd 292a bcbd 04ec c3bd 019f f7bd
00000080: a457 fabd 11a6 6f3d aa3b 9e3c 6a4b 023d
00000090: cecc 15be a543 0cbe 1c02 efbd 04c8 dabc
000000a0: 8bc1 f9bd d278 0ebe e48c 16be fd54 ed3d
000000b0: 9097 e03d ea1c b9bd fc8d d3bd ece5 3b3b
000000c0: 49f8 03be 759c 09be 2c0f 39bc 5986 32bd
000000d0: 0553 c73d d40f 1dbd ac19 07bd 030c 1bbd
000000e0: 671b fabd 8627 1f3c 4286 193e b33f 0abe
000000f0: 8198 aabd d523 d4bd 5c9f 2e3d 18d8 253d
00000100: 477f 883c 78d4 bbbd 2c3a 1dbe bdb2 bc3d
00000110: f49d 713d 86d2 fabc a012 74bd 41bc 8dbc
00000120: a1aa 023d 77ac 43bd 5561 a03d 7586 edbb
00000130: 3e63 57bd fcf2 7ebd 8d63 bb3d 326d 6dbd
00000140: 019f 10bd 5063 bcbc 8c25 7cbd fba6 34bd
00000150: fc7f f73d c854 d0bd 923b 863d 782f bcbb
00000160: 3ff6 163e c3b8 ee3d ecd4 b33d beec bfbc
00000170: 0beb 8e3c d85b 5f3d a49a a93d 823e 193d
00000180: 8d6f 403c 09ca 7fbd 9348 99bd 3552 10be
00000190: 6662 ea3d bb69 c53d 4991 f43d ee3b 1f3e
000001a0: 2c66 083c 2a09 e73d 9fd5 29bc 887d fb3d
000001b0: 5e54 ef3d ebe4 413d 5146 8fbd e746 3cbd
000001c0: 38ce 913d 442d a23d d98a 813c 0542 8c3d
000001d0: 5b48 7d3d 31e3 cbbd 77da f13d 31a3 d23d
000001e0: 464e 65bd ef17 9c3d a717 0dbe b0e5 de3b
000001f0: c8bb d63d b008 a4bd 29f9 b13d 37cd ea3a
00000200: f776 d3bb 74ca 55bd 1658 823d dc1f edbd
00000210: 6c53 3ebd 4bbe 0a3e 9948 02bd 31c3 1dbe
00000220: cf3d a83d fb0f c9bd c044 2dbd 2dc3 b7bd
00000230: 6d9e cd3d d079 d63d 7dac 903d 291b c1bd
00000240: a77a ba3b 3119 64bc baf8 9dbb ca4b f1bd
00000250: 8d1c 7bbd cc1e b13d b694 343c 9dc9 bdbc
00000260: 9a9f e83d b2f7 8f3d f65e fd3d cb09 ef3c
00000270: 1572 8d3d 7655 173d 1578 013e 2aa4 f5bd
00000280: 8971 bebb 28be 883c fc99 3e3d 1833 1e3e
00000290: 27ad 46ba 6272 edbd b9dd ff3c 02de ef3d
000002a0: df6a 9a3d bf22 e73d 49a9 79bd 7011 77bd
000002b0: a600 d1bd 0bba aebd b3c1 f43d dd47 b83d
000002c0: 0b63 3cbb a0e2 e9b9 cfbc 543d 27e6 29bc
000002d0: a374 1e3e d317 8fbb 9c3f 2abd 19b2 0fbe
000002e0: aaab 15bc 52e5 023d 8e9f 723d e08d e2bd
000002f0: 5182 ee3d c617 d43d 425d cd3b 0715 87bd
00000300: e8b7 21be 023a 8c3d 2c91 323d 5729 15bd
00000310: 57d9 bdbc 035d 0a3d 5d7e 33bd eb1e 3e3d

lstm.bias_hh_l0 f4 [200]
-0.029992804 0.026434148 0.085527934 -0.04439623 0.11651803 -0.01745339 -0.12004884 -0.008538557
0.026182413 0.11840692 -0.102475375 0.031633094 0.032412827 0.12744975 -0.07100031 -0.09388523
-0.0034321516 0.03761199 -0.013464349 -0.06517392 -0.049989022 -0.089757375 0.015648397 0.15706867
-0.08879809 -0.04457955 -0.11274799 0.096876256 0.076924354 0.10378709 0.12440805 -0.026895706
0.13648628 0.026418446 0.08322365 0.121256895 0.0758953 0.023170501 -0.07904551 -0.12998605
0.12287122 -0.02237151 -0.11775424 0.1286918 -0.12630288 0.03638345 0.03724386 -0.044536043
-0.12545691 0.028865278 0.061058834 -0.11482825 0.092569865 0.121521205 -0.022879792 -0.048296776
0.056173563 -0.05877587 -0.056355473 0.046692066 0.0584793 -0.022653509 0.0429195 0.014283462
-0.07796198 0.004907556 -0.05017368 -0.04900468 -0.10328688 0.083115965 -0.12182551 -0.0823551
0.099852026 -0.08501679 0.04961857 0.007866201 -0.071593784 -0.093797356 0.12120746 0.12915346
0.020387962 -0.1154266 0.1195991 0.03785172 -0.030140862 0.050582197 -0.13918202 0.075419344
0.08878308 0.023933694 -0.11793077 -0.12508939 0.1369374 0.058194637 -0.021254014 -0.09282769
0.064131886 0.13315183 -0.11375288 -0.052397493 0.02470095 -0.07121656 0.124169074 0.016099164
-0.028442834 0.040569246 0.06433798 -0.035502866 -0.016672757 0.041457023 0.024593653 0.059432648
0.15405811 -0.030347586 -0.045981754 0.017133014 -0.12775877 0.04373657 0.07172206 -0.058428362
0.113958195 0.07367664 -0.012224954 -0.13214156 0.041844524 -0.02317405 0.02042134 0.15308039
-0.05025998 -0.08639324 -0.16024005 0.08110361 0.052951597 0.07232823 0.1061852 0.033039004
-0.10727245 0.09605194 -0.113197826 0.040890004 0.071104296 -0.0871592 0.14004649 0.048047394
-0.043863513 -0.026867285 -0.0742893 0.08617269 0.122735485 -0.06419024 0.15366264 -0.07416939
0.12477914 0.06841636 -0.037657727 -0.123817876 0.12510538 -0.0062261308 0.019645547 0.07269813
-0.048624538 -0.051913004 -0.019102925 -0.07756582 -0.12831691 0.07271802 0.019422172 0.090979405
0.121020265 -0.05782372 0.13396853 -0.10534631 0.058784045 0.036197692 0.057544854 0.034446035
0.053616624 0.053043783 -0.13218208 0.09881216 0.14051613 0.13707371 -0.09642803 -0.13785347
0.09502879 0.044523694 -0.100780755 0.1299642 0.05004602 0.04795903 0.11599792 0.102323115
-0.07892343 -0.08128714 -0.094684616 0.010859766 -0.095247395 0.014663668 0.14425781 -0.105713084
00000000: 78b3 f5bc 6d8c d83c 4529 af3d d2d8 35bd
00000010: 01a1 ee3d 69fa 8ebc 2bdc f5bd 4ee5 0bbc
00000020: 807c d63c 547f f23d 9cde d1bd b491 013d
00000030: 50c3 043d 3082 023e 9c68 91bd e646 c0bd
00000040: f3ed 60bb 080f 1a3d 9399 5cbc e779 85bd
00000050: 4ac1 4cbd b7d2 b7bd 1131 803c 9cd6 203e
00000060: c6db b5bd 0c99 36bd 6be8 e6bd 0f67 c63d
00000070: 848a 9d3d 538e d43d a6c9 fe3d 6254 dcbc
00000080: 0fc3 0b3e 7f6b d83c 2971 aa3d 8955 f83d
00000090: ff6e 9b3d 10d0 bd3c 9de2 a1bd 101b 05be
000000a0: e8a3 fb3d 7544 b7bc 2329 f1bd c9c7 033e
000000b0: 8b55 01be d006 153d 058d 183d 6d6b 36bd
000000c0: c777 00be e076 ec3c d418 7a3d 132b ebbd
000000d0: 4595 bd3d 1ce0 f83d 676e bbbc d7d2 45bd
000000e0: 4016 663d f7be 70bd ffd4 66bd 2e40 3f3d
000000f0: fe87 6f3d da93 b9bc 5ccc 2f3d 2f05 6a3c
00000100: 88aa 9fbd 90cf a03b eb82 4dbd 22b9 48bd
00000110: 1288 d3bd b438 aa3d a77f f9bd caa9 a8bd
00000120: 387f cc3d 481d aebd d73c 4b3d 3de1 003c
00000130: c39f 92bd d418 c0bd 9e3b f83d ce40 043e
00000140: a804 a73c c864 ecbd 5ff0 f43d 680a 1b3d
00000150: f8e9 f6bc 472f 4f3d bb85 0ebe 7575 9a3d
00000160: e7d3 b53d 9810 c43c b085 f1bd 6f17 00be
00000170: 5139 0c3e 805d 6e3d e61c aebc 721c bebd
00000180: 9457 833d f458 083e 45f7 e8bd c19e 56bd
00000190: a659 ca3c fdd9 91bd 5b4c fe3d 65e2 833c
000001a0: f200 e9bc f02b 263d a1c3 833d 746b 11bd
000001b0: 4e95 88bc d7ce 293d a178 c93c a66f 733d
000001c0: 69c1 1d3e 809b f8bc 5d57 3cbd 895a 8c3c
000001d0: 32d3 02be 1e25 333d 04e3 923d 9452 6fbd
000001e0: ea62 e93d c7e3 963d 2c4b 48bc 1e50 07be
000001f0: 2a65 2b3d 81d7 bdbc a74a a73c 1bc1 1c3e
00000200: 69dd 4dbd f0ee b0bd f815 24be a619 a63d
00000210: c6e3 583d d320 943d a077 d93d e853 073d
00000220: a9b1 dbbd e1b6 c43d 43d4 e7bd 477c 273d
00000230: 219f 913d 8680 b2bd 5968 0f3e 58cd 443d
00000240: 3aaa 33bd c818 dcbc fd24 98bd 4f7b b03d
00000250: be5c fb3d 2c76 83bd bd59 1d3e 1fe6 97bd
00000260: 358c ff3d e01d 8c3d fd3e 1abd 3a94 fdbd
00000270: a01b 003e 9204 ccbb b3ef a03c c2e2 943d
00000280: 862a 47bd bba2 54bd bd7d 9cbc d4da 9ebd
00000290: 8265 03be 2fed 943d 3f1b 9f3c 6953 ba3d
000002a0: 79d9 f73d 91d8 6cbd 0c2f 093e cebf d7bd
000002b0: 8ac7 703d 0844 143d 27b4 6b3d 4917 0d3d
000002c0: 1b9d 5b3d 7044 593d bd5a 07be 085e ca3d
000002d0: 76e3 0f3e 0d5d 0c3e 0f7c c5bd 7629 0dbe
000002e0: 749e c23d 7a5e 363d 2466 cebd 5615 053e
000002f0: 0efd 4c3d b070 443d 5190 ed3d c88e d13d
00000300: 9ba2 a1bd df79 a6bd 02ea c1bd 29ed 313c
00000310: 1111 c3bd e23f 703c 52b8 133e 1a80 d8bd

linear.weight f4 [1, 50]
-0.06383568 0.027447058 0.05659109 0.1467917 -0.012609393 0.07631467 -0.10994301 -0.04423734
0.05912836 0.019841045 -0.1312959 0.051936686 0.124134436 0.079794414 0.095242456 0.07152408
-0.07264601 0.041815642 -0.10432791 -0.01207379 0.09852395 0.020487867 -0.014285249 -0.09284146
-0.050385162 0.045722947 -0.12463675 0.035736673 -0.06411742 -0.15483813 -0.097891994 0.12717964
0.020312274 0.09410451 0.08455678 -0.026327142 -0.018312564 0.0033888859 -0.12873816 0.041180067
0.028617732 0.012195794 0.11653692 0.013065812 0.024242109 -0.032772254 0.06437262 -0.12418058
0.02631537 0.060408816
00000000: 48bc 82bd a7d8 e03c 0fcc 673d 9050 163e
00000010: a197 4ebc de4a 9c3d cd29 e1bd 3732 35bd
00000020: 9430 723d b089 a23c 6f72 06be 90bb 543d
00000030: 323a fe3d 416b a33d 7a0e c33d 387b 923d
00000040: 6ec7 94bd e146 2b3d dfa9 d5bd 25d1 45bc
00000050: edc6 c93d 2cd6 a73c ad0c 6abc aa23 bebd
00000060: ac60 4ebd fc47 3b3d 8d41 ffbd 9e60 123d
00000070: fe4f 83bd e38d 1ebe 997b c8bd 613b 023e
00000080: ed65 a63c deb9 c03d 1b2c ad3d 05ac d7bc
00000090: 3b04 96bc 1218 5e3b f0d3 03be 6eac 283d
000000a0: bc6f ea3c ded0 473c e9aa ee3d fd11 563c
000000b0: 6397 c63c 333c 06bd cbd5 833d 6352 febd
000000c0: 5593 d73c 3c6f 773d
